…
Ignored 357 files with insufficient rows
Found 1 problematic files
X_train shape: (1508, 210, 3)
Y_train shape: (1508,)
X_test shape: (159, 210, 3)
Y_test shape: (159,)
X_valid shape: (9, 210, 3)
Y_valid shape: (9,)
X_train dtype: int64
X_test dtype: int64
X_valid dtype: int64
Model: "sequential"
┏━━━━━━━━━━━━━━━━━━━━━━━━━━━━━━━━━━━━━━┳━━━━━━━━━━━━━━━━━━━━━━━━━━━━━┳━━━━━━━━━━━━━━━━━┓
┃ Layer (type)                         ┃ Output Shape                ┃         Param # ┃
┡━━━━━━━━━━━━━━━━━━━━━━━━━━━━━━━━━━━━━━╇━━━━━━━━━━━━━━━━━━━━━━━━━━━━━╇━━━━━━━━━━━━━━━━━┩
│ conv1d (Conv1D)                      │ (None, 210, 8)              │             104 │
├──────────────────────────────────────┼─────────────────────────────┼─────────────────┤
│ max_pooling1d (MaxPooling1D)         │ (None, 70, 8)               │               0 │
├──────────────────────────────────────┼─────────────────────────────┼─────────────────┤
│ dropout (Dropout)                    │ (None, 70, 8)               │               0 │
├──────────────────────────────────────┼─────────────────────────────┼─────────────────┤
│ conv1d_1 (Conv1D)                    │ (None, 70, 16)              │             528 │
├──────────────────────────────────────┼─────────────────────────────┼─────────────────┤
│ max_pooling1d_1 (MaxPooling1D)       │ (None, 23, 16)              │               0 │
├──────────────────────────────────────┼─────────────────────────────┼─────────────────┤
│ dropout_1 (Dropout)                  │ (None, 23, 16)              │               0 │
├──────────────────────────────────────┼─────────────────────────────┼─────────────────┤
│ flatten (Flatten)                    │ (None, 368)                 │               0 │
├──────────────────────────────────────┼─────────────────────────────┼─────────────────┤
│ dense (Dense)                        │ (None, 16)                  │           5,904 │
├──────────────────────────────────────┼─────────────────────────────┼─────────────────┤
│ dropout_2 (Dropout)                  │ (None, 16)                  │               0 │
├──────────────────────────────────────┼─────────────────────────────┼─────────────────┤
│ dense_1 (Dense)                      │ (None, 2)                   │              34 │
└──────────────────────────────────────┴─────────────────────────────┴─────────────────┘
 Total params: 6,570 (25.66 KB)
 Trainable params: 6,570 (25.66 KB)
 Non-trainable params: 0 (0.00 B)
Epoch 1/100
76/76 ━━━━━━━━━━━━━━━━━━━━ 1s 3ms/step - accuracy: 0.6741 - loss: 135.8510 - val_accuracy: 0.8050 - val_loss: 7.0456
Epoch 2/100
76/76 ━━━━━━━━━━━━━━━━━━━━ 0s 2ms/step - accuracy: 0.7915 - loss: 13.3958 - val_accuracy: 0.7987 - val_loss: 0.5263
…
